model/model.pth (torch, 16787 bytes, 4 tensors)

linear1.weight f4 [256, 11]
000000 cb ed 81 be fa 60 88 be c8 ab 10 be eb ec 03 3e
       -0.25376734 -0.26636487 -0.1412803 0.12883346
000010 d5 57 9f be a9 97 f4 bc 1f 3d ca 3a 53 63 e6 3d
       -0.31121698 -0.029857473 0.0015429592 0.11249413
000020 6b e5 9f 3e a5 40 93 3e 08 97 71 be 95 e4 c9 3d
       0.3122972 0.28760257 -0.2359277 0.09858052
000030 1a b0 5e be 7d 48 52 bd 0f a1 37 3d 85 94 11 3e
       -0.21746865 -0.05133866 0.04483133 0.14216812
000040 96 1e 25 be 27 b5 71 be 4b 14 e2 3d 50 88 ac 3d
       -0.16124949 -0.2360426 0.11039027 0.08424437
000050 df 93 06 be 66 7f 97 3e 4c d0 25 3e 58 78 92 3b
       -0.13142346 0.29589385 0.1619274 0.0044699125
000060 20 3e 2a 3e cf 4b 00 be 18 8d 8f 3e f2 24 55 3e
       0.16625261 -0.12528919 0.28037333 0.20814875
000070 88 44 35 bd 9a 0f 95 be c7 8d 8a be 90 a2 3d be
       -0.04425481 -0.29113466 -0.27061293 -0.18519044
000080 04 ec dd bd 63 5f e1 bd 33 51 82 bd 53 6d b5 bd
       -0.10836032 -0.11004522 -0.06363144 -0.088587426
000090 94 84 f7 3d a0 c7 d7 bd 0f 28 54 be 35 aa dd bc
       0.12085834 -0.10536122 -0.20718406 -0.0270587
0000a0 2f 96 26 3e a4 63 fc 3c 8f e8 6e 3e fd 99 96 3e
       0.16268228 0.030809231 0.23330902 0.2941436
0000b0 03 31 4b be dc e1 59 be 0c 8b 03 be 84 1f 93 3e
       -0.19842915 -0.21277565 -0.12846011 0.28734982
0000c0 cf 8a 83 be 63 ae 8d be 7e 3e 87 be 70 50 31 be
       -0.2569184 -0.2767211 -0.26414865 -0.1731584
0000d0 f6 ee 19 3e 20 d2 09 be e4 0b 74 3e 84 2b 8b 3e
       0.15032563 -0.13459063 0.23832661 0.27181637
0000e0 d8 3b 1e 3d ee 8d 45 3e 29 61 df 3c 5f 4f 30 bd
       0.03863129 0.19292423 0.02726801 -0.043044444
0000f0 36 01 9a be 1f e6 32 3e 8e 56 4f 3e 67 cb d6 3d
       -0.3007905 0.17470597 0.20247862 0.10488015
000100 ff c6 92 be b8 03 52 be c0 fd 52 3c 20 4a d6 bc
       -0.28667447 -0.20509231 0.0128778815 -0.026158392
000110 f3 0d 54 3d ab 2e 94 3e 63 3d 18 be 1a e6 1a 3e
       0.051771116 0.28941855 -0.14867167 0.1512684
000120 a4 59 a3 3d 5f f4 8f be cd 1b 21 be b4 3e 26 be
       0.07976082 -0.28116128 -0.15733261 -0.16234857
000130 90 03 56 3d 28 8f 06 be 00 4b 7c bd 2e 0a 8a 3d
       0.05224949 -0.13140547 -0.061594963 0.06740223
000140 57 15 45 be 19 8c 12 be ef 6c a3 3c e0 dd 61 3e
       -0.19246422 -0.14311256 0.019949405 0.22057295
000150 18 da cb 3d 0e db 78 3e c6 56 89 3e f5 e7 b5 3d
       0.099537075 0.24302313 0.26824015 0.08882133
000160 c6 cd 71 be 8a c7 13 3e 01 d5 39 3e 95 4d 49 3d
       -0.23613653 0.14431587 0.18147661 0.049146254
000170 dc e1 c7 3d a2 02 5d be d0 8d 3c bd 09 c7 9a 3e
       0.09759876 -0.21583036 -0.04603368 0.30229977
000180 0e a9 cd bd bd 3d 16 3e 01 35 52 be 50 ec 80 bd
       -0.1004201 0.14671989 -0.20528032 -0.06295073
000190 82 2d 7c 3c 87 2e 15 3e cc 69 93 bd 73 4f 37 3c
       0.015391709 0.1456853 -0.071979135 0.011188376
0001a0 8e e4 9b bd 8f 86 41 3e d0 3e 83 3e af 56 b3 bc
       -0.07611953 0.18898986 0.2563386 -0.02189192
0001b0 1b 89 52 be f4 9b 83 3e 34 d4 87 be 18 61 01 3d
       -0.20560114 0.2570492 -0.26529086 0.031586736
0001c0 1a 4c 54 be b4 88 8b 3e 14 4f 2b 3e d2 83 52 be
       -0.20732155 0.27252734 0.16729385 -0.20558098
0001d0 a0 d0 3e be 8a 94 6c be 76 0d b8 bd 1b a6 8f be
       -0.18634272 -0.23103538 -0.089869425 -0.28056416
0001e0 80 06 7f 3b 85 cc e5 3c 1e 92 13 be 92 19 35 be
       0.0038913786 0.028051624 -0.14411208 -0.17685536
0001f0 21 fb d4 bd 02 b2 7d bc b8 0d 61 be 16 d4 66 be
       -0.103994615 -0.015484335 -0.2197789 -0.22541842
000200 d5 e4 60 3e 7c 22 56 be 07 5b 6e 3d 0b fd 7c 3d
       0.21962292 -0.20911592 0.05819228 0.061764758
000210 64 3a 7a 3e 72 d1 24 3e 44 cd d4 3d c8 67 b9 bd
       0.24436337 0.16095522 0.10390714 -0.09052998
000220 36 fb 08 be 8d 61 8f 3c a3 01 50 be 8f 02 80 be
       -0.1337708 0.01750257 -0.20313124 -0.25001952
000230 bb 14 8f be 06 23 73 3d 93 d6 0f be db 98 45 3d
       -0.27945504 0.059359573 -0.14046697 0.048241477
000240 ca fd ea 3d 17 bf 69 bd dd 9b 14 be 21 05 a7 3c
       0.11474188 -0.057067003 -0.14512582 0.020388188
000250 26 c1 88 3e 40 ce 85 3e bd f8 4d 3e a8 2f 7b 3e
       0.2670986 0.2613392 0.20114417 0.24529898
000260 35 9c 26 3e 7e 33 4b bc 64 81 9d 3d 2d be 43 bd
       0.16270526 -0.012402413 0.07690695 -0.047788788
000270 bb 4e 28 3e 7e e7 76 3e 0b 80 20 3e 8a 6a 48 3e
       0.16436283 0.24111745 0.15673845 0.19571891
000280 19 58 2c be e3 a5 6a 3d d9 0a 06 be 74 e5 90 be
       -0.16830482 0.05728711 -0.13090076 -0.2830006
000290 c1 a1 80 3e 84 e7 81 be 7c 6e 54 3d b0 6a 0d be
       0.25123408 -0.25371945 0.05186318 -0.1381023
0002a0 43 c4 1a 3d f2 25 fa 3d f7 bd 14 3d 5d 1f 63 bd
       0.037784826 0.12214269 0.036313977 -0.055449832
0002b0 a6 f1 3f 3e 28 85 83 be 73 51 91 be 50 81 d8 3d
       0.18744525 -0.25687528 -0.28382453 0.105715394
0002c0 ec 43 43 be 6d 2d 4f be f0 cc 28 be 40 a4 83 3e
       -0.19068879 -0.20232172 -0.16484427 0.2571125
0002d0 2f 2a bd 3d e8 0c df 3d a9 7e 1f 3e 5c b9 95 3d
       0.092365615 0.108911335 0.15575661 0.07310745
0002e0 2c ff 26 3d 09 78 5b 3e b3 0a 05 be cd 53 1c 3e
       0.040770695 0.21432509 -0.12992363 0.15266342
0002f0 2b 0e 86 be ca 01 60 3e ed 32 1b be 2a cc 4f be
       -0.26182684 0.21875682 -0.15156145 -0.20292726
000300 2f f9 13 3e ff 94 1c bd 45 e8 85 3e 74 55 3f be
       0.14450525 -0.03822803 0.2615377 -0.18684942
000310 a4 7d 5a bd 78 09 57 be f7 76 6d be 7e 08 70 3e
       -0.053342476 -0.20999706 -0.23189913 0.2344074
000320 0b bf 9e 3d a8 b8 f3 3d 37 66 ae 3d 70 da 08 3e
       0.07751282 0.11900455 0.0851559 0.13364577
000330 a4 7e 3d 3e 4d 58 25 3c a7 92 4e 3e b3 50 92 3e
       0.18505341 0.010091853 0.20173131 0.28577194
000340 5a a9 89 3c 20 33 7f bc 9e 7d 96 be 78 7f a3 3d
       0.016804386 -0.015576154 -0.29392713 0.07983297
000350 97 22 2d 3d 7c d4 88 3e 55 9f 44 3e 29 bc 99 be
       0.042269316 0.26724613 0.19201405 -0.30026367
000360 bf 5e 86 be ee f6 40 3e 64 8e 5e be 74 66 90 be
       -0.2624416 0.18844196 -0.21734005 -0.28203166
000370 b7 18 88 3e 46 4c 85 be e5 ec d3 bc 27 c1 41 3e
       0.26581356 -0.26034755 -0.025869796 0.18921338
000380 4f 7a 59 be 1b 4f 89 bc 26 ab 1c be b3 f4 7c bd
       -0.21238063 -0.016761353 -0.15299663 -0.0617568
000390 12 60 6f 3e 3f 24 25 3e a3 95 12 3e 90 21 62 3e
       0.23376492 0.16127108 0.14314894 0.22083116
0003a0 27 9a 1f be fa a8 93 be 8e 26 71 be 54 a4 10 3e
       -0.15586148 -0.28839856 -0.23549864 0.14125186
0003b0 ad 84 92 be bc 32 91 3e 4c 02 86 be 5a 9b 54 be
       -0.2861685 0.2835902 -0.26173627 -0.20762387
0003c0 10 bf 3a be bd bc 5d 3e 7b 19 f2 3c 7e cb 49 be
       -0.18236947 0.21654029 0.029553166 -0.19706532
0003d0 5b 11 64 3e 95 ca ca bd 06 5a 02 be 07 85 32 3e
       0.22272246 -0.09901921 -0.12729654 0.17433558
0003e0 38 71 d8 bd 49 b0 b5 3d f8 05 af bd 25 15 8c 3e
       -0.1056847 0.08871514 -0.0854606 0.27359882
0003f0 91 4f 02 be de 4e a2 bd e2 5c aa 3b b5 84 fd bc
       -0.12725665 -0.07925199 0.005199061 -0.030947069

linear1.bias f4 [256]
000000 9a 3e 30 3e 7c e4 94 3e cd 52 5a 3d 5d 8e 41 3e
       0.1721138 0.2908057 0.05330162 0.18901964
000010 ef ea f0 3d 95 ea eb bd 76 e7 1b be 4e 1d 99 3d
       0.1176356 -0.11519352 -0.15225014 0.074762926
000020 ea 51 0b 3e 46 3e be bd 9c 3e 04 be 80 d3 8a 3e
       0.13605466 -0.092892215 -0.12914509 0.27114487
000030 c7 c6 c8 bd 9d 52 0f 3e 34 cc 82 be 43 81 8d 3e
       -0.09803539 0.13996358 -0.2554642 0.2763768
000040 63 12 0f 3d a6 f8 4d 3c 70 73 92 3e 09 ab ac bd
       0.034929644 0.012571489 0.28603697 -0.0843106
000050 e8 ed 93 3e b9 7c 36 be 83 44 5a 3e 59 e4 fd 3d
       0.28892446 -0.17821015 0.21315198 0.123970695
000060 27 be e3 bd b2 c6 98 be 0c 2b 92 be 5e 29 50 be
       -0.11120253 -0.29839092 -0.28548467 -0.2032828
000070 4a 7c ee bd a3 b4 47 3e 98 5b 64 3e c1 3a e1 3d
       -0.116448 0.19502501 0.22300565 0.109975345
000080 25 97 30 3e 68 18 13 be aa eb db 3d e4 74 a2 bd
       0.17245157 -0.14364779 0.10738309 -0.07932451
000090 e8 18 96 be 2a db 48 bd cf d3 21 be 9e 6d 48 be
       -0.29315877 -0.049037136 -0.15803455 -0.19573066
0000a0 08 c0 32 be 41 af 92 bd 1e 84 1e 3e 20 24 4e 3d
       -0.17456067 -0.07162333 0.15480086 0.05032742
0000b0 c2 49 89 bd 7f bd 5d be 0f a8 8d 3e 40 be 92 bc
       -0.06703521 -0.21654318 0.2766728 -0.017912984
0000c0 d0 a9 b3 3d 31 fb 1f bd 22 91 4c be cf cf 76 3e
       0.087726235 -0.039057914 -0.19977239 0.2410271
0000d0 fb 9c 82 be 78 95 40 3e 6a 21 83 3e 9d 11 8a 3e
       -0.25510392 0.18807018 0.2561143 0.26966563
0000e0 b1 a6 82 3e 42 4d 81 3e 8f f0 81 be 26 7b 68 bd
       0.255178 0.25254256 -0.25378844 -0.05675807
0000f0 84 d8 a0 3c ab 73 6e 3e 8d 3b 4d be b0 26 f5 bd
       0.019634493 0.23286311 -0.20042248 -0.1197027
000100 8b cd 0b 3e 42 d9 2b 3e 9b 45 3a be 85 5b 9a bd
       0.13652627 0.16782096 -0.18190615 -0.07536987
000110 53 21 86 3e 3a 76 65 be a3 dc 91 be 91 02 f8 bd
       0.261973 -0.22408381 -0.28488645 -0.121098645
000120 4c 36 b0 bd 48 46 d7 3d 8a ba 8f 3e fc a0 09 3e
       -0.08604106 0.10511452 0.28072006 0.13440317
000130 67 67 91 3d c6 55 4d be a2 50 d7 bd eb b6 92 bd
       0.070998006 -0.20052251 -0.10513426 -0.07163795
000140 f0 2b e1 bc 34 bb 93 3e 04 56 80 3e 75 95 9f 3d
       -0.027486771 0.28853762 0.25065625 0.077921785
000150 75 56 77 3e 08 da 16 be 59 bc 4c 3e a7 e9 23 3e
       0.24154074 -0.1473161 0.19993724 0.160071
000160 77 4c e4 3c 30 01 81 be ea 12 2c be b4 ce 81 be
       0.027868493 -0.25196218 -0.1680409 -0.25353014
000170 43 b8 9e 3d ad 31 80 3e 28 b4 d2 bd c9 2d 60 be
       0.07749989 0.250379 -0.10288268 -0.21892466
000180 b0 45 66 be 3a 02 6a 3a d9 21 9a 3d cd b3 51 3d
       -0.22487521 0.00089267234 0.07525987 0.051196862
000190 bd 87 36 be 74 61 03 3d cb 69 cd 3d 34 8b 9f 3c
       -0.17825218 0.03207536 0.10029944 0.019475557
0001a0 ee 84 8d be 0b 67 2f 3e 03 89 ee 3d e0 94 58 3e
       -0.2764048 0.17129152 0.11647227 0.21150541
0001b0 39 51 f5 3d 61 25 f4 3d d8 ac 1a 3e be 66 b8 bd
       0.119783826 0.11921192 0.15104997 -0.090039715
0001c0 d1 b9 5f 3c fd dd 87 3c 43 e8 b6 bc f0 11 0e be
       0.013655142 0.016585344 -0.022327548 -0.1387403
0001d0 59 21 6d 3e 27 bb d8 bd df f4 db bd 03 79 82 bd
       0.23157252 -0.105825715 -0.10740065 -0.063707374
0001e0 f1 36 a0 bc df d5 7f be c8 6b 42 be f3 3e 40 3e
       -0.019557448 -0.24983929 -0.18986428 0.18774013
0001f0 80 06 7f be cb f6 36 3e bf 6e 5a 3e f9 d3 09 be
       -0.24904823 0.17867582 0.21331309 -0.13459767
000200 c8 3b 61 be c8 c5 82 be 51 39 23 3e 81 04 6c be
       -0.21995461 -0.2554152 0.15939833 -0.23048593
000210 f4 71 70 be d9 a0 43 be e0 d6 6a be cb 2a 45 3e
       -0.2348097 -0.19104327 -0.22933531 0.19254605
000220 36 54 4b be 44 3f b8 3b 2b d4 91 be a7 15 ac 3d
       -0.19856343 0.005622776 -0.28482184 0.08402567
000230 45 76 48 3e 66 65 8a 3d a9 91 02 3e cf 39 87 3e
       0.19576366 0.067576215 0.12750877 0.26411292
000240 5c bd 61 be 2a 2f 8a be 58 fd 80 be c8 48 ef bd
       -0.22044891 -0.26989108 -0.25193286 -0.11683804
000250 5d 02 83 3e 9a 0e 7f be 77 4c 72 3e c2 35 b3 3d
       0.2558774 -0.24907914 0.23661982 0.08750488
000260 cb 3b 17 be 25 9e f0 3d 65 ab 19 be 56 3e b3 bc
       -0.14768903 0.11748914 -0.15006788 -0.02188031
000270 a2 13 e2 3d 9d 75 22 be ec 1b 0f 3e 67 86 22 bd
       0.11038901 -0.15865178 0.13975495 -0.039678957
000280 9a 3c 8b 3e b9 eb 82 bd 49 23 06 bd 7e 2d 59 3d
       0.27194673 -0.06392617 -0.032748494 0.0530219
000290 86 0d 96 bd 2f 2f d8 bd b8 b7 80 3e 27 2d 82 3e
       -0.07326798 -0.105558746 0.25140166 0.25425074
0002a0 2c 04 7c bd 00 55 29 3e 62 2b 91 be b3 c5 eb bc
       -0.061527416 0.16536331 -0.2835341 -0.028780794
0002b0 dc dc ed 3d f7 98 bf 3d 7a 4a ea 3d f5 ca c4 bc
       0.11614391 0.093553476 0.114399865 -0.024022559
0002c0 28 05 97 3e 2f 59 ed bd d5 e4 d8 bd 46 d2 9e be
       0.2949612 -0.11589276 -0.10590521 -0.310198
0002d0 f2 b7 24 3e b5 36 78 be 89 23 83 be d8 42 21 be
       0.16085795 -0.24239619 -0.2561305 -0.15748155
0002e0 46 cd 60 3b c3 77 92 be 42 1a c4 bd 2b 67 3d be
       0.003430204 -0.28606996 -0.09575321 -0.18496387
0002f0 b9 c4 3d be e5 07 84 3e 43 0f 6d bd bb a7 73 bd
       -0.18532075 0.25787273 -0.057875883 -0.059486132
000300 89 e4 85 3e 60 9b 92 3e db 8d 7a bd 7e 72 92 be
       0.2615092 0.28634167 -0.06117044 -0.28602976
000310 da 7a 45 3e 4a 98 ff 3d 46 c3 b7 3d 68 be 86 3d
       0.19285145 0.12480219 0.08972792 0.06579286
000320 6a f6 bc bd a2 e1 8d be aa dd 86 3e a1 42 02 3e
       -0.09226687 -0.27711207 0.2634099 0.1272073
000330 63 c5 67 be a5 4b ea 3c c1 6f cc bd c2 0f 9f ba
       -0.22633891 0.028600523 -0.09982253 -0.0012135433
000340 16 26 5b bd dc 17 02 bd ea e6 21 3e 74 10 5a be
       -0.05350312 -0.031761035 0.15810743 -0.21295339
000350 3b 71 35 3e 49 dc a1 be 52 9e 75 3d c3 ef 1a 3e
       0.17718975 -0.31613377 0.05996544 0.15130524
000360 c8 01 84 be c4 ba 26 3e 67 90 2c be e5 1e 95 be
       -0.2578261 0.16282183 -0.1685196 -0.29125133
000370 06 bc 39 3d f6 50 95 3e 2c 5d 96 3e b6 0b f6 bc
       0.04534533 0.2916333 0.2936796 -0.030034881
000380 4d cb 75 be e7 9b 30 be 12 fa 80 be 89 3e 22 be
       -0.24003334 -0.17246972 -0.25190789 -0.15844168
000390 33 18 08 be 29 c6 32 be 68 c3 2c 3e aa ac b0 3d
       -0.13290481 -0.17458405 0.16871417 0.08626683
0003a0 4a 5e fe bd db 39 88 be 7a 89 02 be af 1f 40 be
       -0.12420328 -0.2660664 -0.12747756 -0.18762086
0003b0 87 21 29 3e c8 f6 98 3e b2 63 18 3e 72 85 97 3c
       0.16516696 0.2987578 0.1488178 0.018496249
0003c0 ee b4 6a be 4b a9 f3 3d 68 a4 40 be b4 db 18 bd
       -0.22920582 0.118975244 -0.18812716 -0.0373189
0003d0 2f 89 a2 3d c6 1f 9e bd a2 b1 a1 be 48 86 7e 3e
       0.07936322 -0.07720904 -0.31580836 0.24855912
0003e0 4a 11 c9 bb 14 81 65 be f4 e6 6a 3e 9c 8a ea bd
       -0.006136094 -0.2241252 0.22939664 -0.11452219
0003f0 00 c0 37 3c e3 1f 93 be 8e 41 84 be 9e d1 60 3d
       0.01121521 -0.28735265 -0.25831264 0.054887407

linear2.weight f4 [3, 256]
000000 c1 4b 40 bd 91 49 ad bd da c7 01 3d 51 27 39 bd
       -0.046947245 -0.08461297 0.031684734 -0.04520351
000010 9f 18 9b bd 63 7e d4 bc ca fa ab bc a8 ab 80 bd
       -0.075730555 -0.025939172 -0.020993609 -0.06282741
000020 d2 07 00 bd 40 30 f0 3c 86 30 00 bd e3 62 f5 3c
       -0.031257458 0.029319882 -0.031296276 0.02995438
000030 ce fe 70 bc 02 89 0e 3c 33 0f 22 3d a0 54 c7 3b
       -0.014709188 0.008699657 0.039565276 0.006083086
000040 8c e8 cc 3c 77 c3 44 3b 29 91 66 bd 6a 9c 68 bd
       0.02501323 0.0030023733 -0.05629078 -0.056789793
000050 05 76 40 bd 67 26 84 bd b6 8c 4a bd ea 71 ea 3c
       -0.046987552 -0.06452637 -0.0494506 0.028618772
000060 4d e0 2b 3d a1 26 d9 3c cc 2d fa 3c f0 e2 ac bd
       0.041961957 0.026507678 0.030539416 -0.084417224
000070 8b 02 21 3d 61 ed 61 3b 09 56 86 bd ff c2 80 bd
       0.039309066 0.0034473764 -0.06559379 -0.062871926
000080 03 91 85 bd 74 ab 0a bc 2e 0e 42 bd 81 57 40 bd
       -0.065217994 -0.008463729 -0.047376804 -0.04695845
000090 ac 5b 17 3d 24 ce e8 3c 28 14 25 3d fc 45 4f 3d
       0.03695266 0.028418608 0.040302426 0.05060385
0000a0 ee 0d 2b 3d d7 ea 3e 3d 3b 55 61 bb 7e e9 70 3d
       0.04176133 0.04661068 -0.0034383077 0.058816426
0000b0 7d 05 59 bd 03 7d 58 bd 9e 98 22 3c aa 88 76 bd
       -0.05298375 -0.052853595 0.009924082 -0.060188927
0000c0 e1 a5 52 3d 37 a2 90 bb 71 df 8f 3a e5 3d 24 3d
       0.051427726 -0.0044138688 0.0010976625 0.04009809
0000d0 0a 28 45 3d ca 77 93 bb ed 82 2f bd c8 72 85 bd
       0.048133887 -0.004500364 -0.04284947 -0.065160334
0000e0 55 7b 21 3a 2a bf 15 bd 7c 32 b1 3c b8 16 8a bc
       0.00061600405 -0.03655926 0.021630518 -0.016856536
0000f0 0e 79 a3 3c b0 c4 c8 bc f1 30 30 bb d0 43 80 bc
       0.019955184 -0.02450785 -0.002688464 -0.015657336
000100 48 7b 88 bc 90 11 28 bd 13 0c 71 bd 51 97 d3 3c
       -0.016660348 -0.041032374 -0.058849405 0.02582899
000110 03 e2 03 bc 73 ff 0b 3d 82 e7 74 3c a0 ad 4b bd
       -0.008049491 0.034179162 0.014947774 -0.04972613
000120 4c 36 56 3d 7b 2d e1 bc 48 61 b2 bc c8 8f 5d bd
       0.052297875 -0.027487507 -0.021774903 -0.0540922
000130 6c 9f 88 bd 4a 82 62 bd 15 ad 56 bd 34 c3 f0 bc
       -0.06671032 -0.055300035 -0.052411158 -0.029389955
000140 5a 01 0c 3d 89 11 6a bd d9 b0 00 3c 69 be 4b bd
       0.034180976 -0.05714563 0.007854664 -0.049742136
000150 1e 4a 3c 3b a2 51 83 3c 28 ce 48 3d da 52 37 3d
       0.00287307 0.016030136 0.04902473 0.044756748
000160 8e 8d 63 bd 4a cf 48 3d 5d f6 cd 3b 02 99 48 3d
       -0.05555492 0.04902581 0.0062854723 0.048974045
000170 91 67 d5 3b 24 7e 03 bc a7 f1 84 3c a5 da 12 bb
       0.00651259 -0.00802568 0.01622851 -0.0022408154
000180 3c 6c 8e bc de 10 4a bd 3c 51 5e bd be 8b 09 bd
       -0.017385595 -0.049332492 -0.05427669 -0.033580534
000190 c6 2d 11 bb b2 c7 35 bd f7 f9 76 bc 8b cc b9 3c
       -0.0022152527 -0.044379897 -0.015074245 0.022680542
0001a0 24 3a 28 3d 8d 2b 82 bd f7 ee ce 3c b6 5c 0e bd
       0.041071072 -0.06355963 0.025260432 -0.034756385
0001b0 0f 9b 41 3c f1 33 70 bd e3 72 a0 3c 80 b6 83 bd
       0.011816754 -0.058643285 0.019586032 -0.064312935
0001c0 a0 c4 46 3d 88 9c bf 3c 0a 63 a9 bb 82 d7 00 3d
       0.04852736 0.02339007 -0.005169277 0.031455524
0001d0 23 05 84 3b 27 69 25 bd e9 f3 98 bc ff b7 86 3b
       0.0040289327 -0.040383484 -0.018670993 0.0041112895
0001e0 3f 36 ee 3c 95 d0 3b 3d 80 da ea ba c9 f8 78 bd
       0.0290786 0.045853216 -0.0017917901 -0.060784135
0001f0 91 a2 98 3d 59 8e 94 3c 70 8b e1 3b 02 08 44 bb
       0.07452882 0.018134283 0.0068830773 -0.0029912
000200 a0 63 da bb 13 60 50 bd 51 32 cd 3c d3 8b 4c 3d
       -0.0066647083 -0.050872874 0.025048407 0.049938034
000210 bb bc c1 3c 2a 6a d8 3c 08 3e ab ba d4 5b b6 3b
       0.023649564 0.02641781 -0.0013064751 0.005565146
000220 70 b2 37 3d ce 28 17 3d 04 fb e0 3c c6 12 df 3c
       0.044847906 0.03690415 0.027463444 0.027230632
000230 2d 00 4d bd 0b 80 04 3d 13 f0 42 bd dd d6 10 3d
       -0.050048996 0.032348674 -0.047592234 0.03536116
000240 10 81 a0 3c f8 1f d3 3c a1 40 53 bd 6e d5 44 bd
       0.019592792 0.02577208 -0.051575307 -0.048055105
000250 80 9d 50 bd ac cd 34 bd f4 b3 2e bd da 38 5b 3c
       -0.050931454 -0.044141456 -0.042652085 0.013380254
000260 d2 15 11 bd a8 52 6e bd 6b a5 00 3c 5d f9 30 bd
       -0.0354212 -0.058184296 0.007851939 -0.04320656
000270 3d 2a c8 3c 5f dd 73 bb 40 7d 9b bc c7 ed a6 3b
       0.024434203 -0.0037210805 -0.018980622 0.0050942632
000280 89 15 bb ba 80 69 1a 3d 6c 6d b8 bc fb 60 16 bc
       -0.0014273386 0.03769827 -0.022513114 -0.009178395
000290 d9 35 f6 3c 67 30 6b bd e0 95 0e 3d 7c 85 80 bd
       0.030054973 -0.057419207 0.0348109 -0.0627546
0002a0 3f fd 35 bc 8d fa 41 bd 81 35 b5 bb c5 eb 81 bd
       -0.011107742 -0.047358084 -0.00553006 -0.063437976
0002b0 0f 1d 0a 3d a4 35 5b bd e2 ba 86 bd 2f 7a ae 3b
       0.03371912 -0.053517953 -0.06578614 0.005324624
0002c0 1a b9 d9 bc ba e0 46 bd 6c b1 c3 bc 46 c1 15 bd
       -0.026577521 -0.04855416 -0.023888312 -0.036561273
0002d0 f4 3a 7f 3c 0a f0 29 bd 22 47 12 bd 27 cd ba 3b
       0.01557802 -0.041488685 -0.03571237 0.0057007256
0002e0 db 67 80 bd 1a 6c f0 3c 13 b9 ac 3b 18 02 a3 bc
       -0.06269809 0.029348422 0.005271086 -0.01989846
0002f0 8a 0d 88 bc d6 5c d4 3c 58 c1 5d 3d 62 8d 3a bd
       -0.016608018 0.025923174 0.054139465 -0.04554499
000300 d7 e6 19 bd 40 e3 05 bd c6 6a 4d 3d ce 98 0f 3d
       -0.03757366 -0.032687426 0.050150655 0.035057835
000310 e0 3f 93 3c b0 8c 3b 3d 7b 6a 31 bd ed 73 4a 3d
       0.017974794 0.045788467 -0.04331444 0.04942696
000320 df 46 73 bd fa cf 4b bd f4 19 d9 ba 80 a4 46 3d
       -0.05939376 -0.04975889 -0.0016563521 0.048496723
000330 0d a2 20 bc bd c9 d9 3b f8 6b 21 bd 3c 4a 23 bc
       -0.009804261 0.0066463635 -0.039409608 -0.009966429
000340 97 7f 23 bb 7c 62 ff 3c cb 1f a1 bc 57 4b 8b bd
       -0.0024947876 0.03117489 -0.01966848 -0.06801479
000350 59 0e 1b bc bc f9 45 3d c2 64 0a 3d 59 d2 69 bc
       -0.00946387 0.04833387 0.033787496 -0.014271342
000360 5a f9 71 3d 5c bd 6d 3a 14 d0 1f bc fa 17 2c bd
       0.05907569 0.0009069049 -0.0097542 -0.042015053
000370 96 a4 0d 3d 98 7f 13 bd 7c a7 69 bd dc 42 2e bd
       0.03458079 -0.036010355 -0.05704449 -0.04254423
000380 b4 d7 62 3d f1 b3 da bb 20 e4 46 3d d2 70 d9 bc
       0.05538149 -0.0066742827 0.0485574 -0.026543055
000390 aa 09 e4 bc ae 8c 4f bc cc 36 20 3d 30 d5 59 bd
       -0.02783664 -0.012667818 0.03911476 -0.053181827
0003a0 c6 4f 08 3c d8 52 04 bc 9a be 99 bd 0a 32 17 bb
       0.008319801 -0.008076392 -0.075070575 -0.0023070597
0003b0 ba 40 c9 bb 2f de e4 bc 0e f4 5d bc 7c b8 8c bc
       -0.006141749 -0.027937977 -0.013546957 -0.017177813
0003c0 c7 55 18 bd 00 40 9f b9 47 9a 99 bc f6 0d 79 bd
       -0.03719118 -0.00030374527 -0.018750323 -0.06080433
0003d0 48 9c 34 3c 42 f0 b1 bc 5a 52 a8 3c ff ff 82 bd
       0.0110235885 -0.02172101 0.02054708 -0.06396484
0003e0 aa c0 d5 ba 7f 1c 30 3d ee c5 0f bc 78 7d 61 bc
       -0.0016308029 0.042995926 -0.008775217 -0.013762824
0003f0 b0 42 4c bb d0 33 76 bc 21 d5 d3 3b ba 30 b6 bb
       -0.0031167679 -0.0150270015 0.006464616 -0.005560008

linear2.bias f4 [3]
000000 a4 fa e1 3c 3e ce 0e 3d ba 08 65 bd
       0.027585335 0.034864657 -0.055916525
