Snake+AI/model/model.pth (torch, 16787 bytes, 4 tensors)

linear1.weight f4 [256, 11]
-0.0155058345 0.08111948 -0.13625604 -0.118172124 -0.29836443 -0.0029399407 -0.08576455 -0.24553663
0.23811945 -0.08855522 -0.17796081 0.145945 0.17377856 0.32086596 0.16007212 -0.008637817
0.089330696 -0.25715503 -0.10167008 0.27023238 0.12249809 0.41163015 0.33296567 -0.0050376887
0.23769219 0.052759785 -0.37217546 -0.010641051 0.09562748 -0.081104785 0.53562933 0.15256797
0.01907046 -0.060167078 -0.2635939 0.20277227 0.18723641 -0.10708681 0.26467046 -0.2764167
-0.2210286 0.15170044 0.16486788 -0.18160924 -0.36142266 0.2877312 -0.08597516 -0.11439854
-0.2587089 0.092050426 0.068667494 0.21965477 0.30504337 0.15722896 0.032080457 0.19852912
0.19638534 -0.11800595 -0.24827991 -0.25035232 -0.14524959 0.100078076 -0.0127754295 -0.21738018
0.12131799 0.07075188 -0.301072 0.33247584 0.37110543 0.13040504 -0.08037017 0.18511537
0.38858494 0.06557425 -0.23323508 -0.11319274 0.21685374 0.12273339 0.06741732 -0.11769719
0.056599624 -0.2530805 -0.02589471 -0.07111431 0.3721428 0.26871857 0.058490336 0.08428705
-0.19814982 -0.19008258 0.3414973 0.26718596 0.19956562 -0.08659357 -0.062401175 -0.009672403
0.20382303 -0.21530555 -0.22708255 -0.037006576 0.4276472 0.030583002 0.11815172 0.19101171
-0.14028054 -0.12143179 0.16076334 0.10995772 -0.10091617 0.09969239 0.30601168 0.34938812
0.17575935 0.1511484 0.21450458 0.019486323 -0.16192429 0.17120144 0.40611535 0.20995979
0.3151438 -0.04730803 -0.005550094 0.2043789 0.074720986 0.23962218 -0.31058392 0.19191328
-0.1973969 -0.16737497 -0.43454385 -0.24178 0.2603738 0.30363014 0.3480745 -0.1896134
-0.02207459 -0.09647224 0.099131964 0.4539186 0.3516217 0.1525134 -0.043615494 -0.15692493
-0.26334226 0.69477206 -0.0892245 -0.012143838 0.060268395 0.06629279 -0.08155638 0.14772828
-0.11541227 0.25281015 -0.2572679 -0.012228578 -0.15316288 -0.122767 0.033824507 0.017990673
-0.21950012 -0.031337827 0.11517995 -0.16590506 -0.16916734 -0.37692586 -0.43107083 -0.15432753
0.32699147 0.22623418 0.20329277 0.2094423 -0.024657873 -0.0227333 -0.13786498 -0.14252579
-0.35411933 -0.02123768 0.026192313 0.12162877 0.24440795 0.10306419 -0.20197847 -0.15051563
0.14575629 -0.0015966482 -0.27805465 -0.338496 0.3335065 0.09847757 0.032919303 -0.0020179679
0.099549375 -0.25742617 -0.28544804 0.17137793 0.06351868 -0.10987743 0.48579457 -0.0210538
0.5080333 0.013008933 0.04262973 0.028281046 -0.056748025 0.13105875 0.10548315 0.12221931
0.1366221 -0.2391623 -0.13630423 -0.0034490915 -0.0804133 -0.2546423 -0.23737665 0.10230451
0.11375913 -0.08011933 0.12396965 -0.12924981 0.551445 -0.14393906 -0.15843791 0.16036357
-0.03294055 0.27137622 -0.10653563 0.12270626 0.23801407 -0.024847848 0.11524196 -0.13791828
0.31593397 -0.08951446 0.21131077 0.10570949 -0.287517 0.25184944 -0.023313051 0.37512973
-0.028587118 0.106713265 -0.7206849 0.5297504 -0.12966502 0.13268408 -0.037444834 0.1135389
0.05819124 0.22246222 0.14558946 0.19390151 0.24357814 -0.04985695 -0.018535143 0.7103145
00000000: 2f0c 7ebc f821 a63d b486 0bbe 3a04 f2bd
00000010: 39c3 98be 05ac 40bb 53a5 afbd f46d 7bbe
00000020: 96d5 733e 705c b5bd 5c3b 36be 9b72 153e
00000030: 02f3 313e 8b48 a43e f2e9 233e a185 0dbc
00000040: 03f3 b63d d3a9 83be 6738 d0bd e65b 8a3e
00000050: 47e0 fa3d 30c1 d23e 7a7a aa3e 3213 a5bb
00000060: 9565 733e a51a 583d c88d bebe ce57 2ebc
00000070: 57d8 c33d 441a a6bd 011f 093f c73a 1c3e
00000080: a739 9c3c c171 76bd c8f5 86be 89a3 4f3e
00000090: e7ba 3f3e 5450 dbbd e382 873e 7d86 8dbe
000000a0: 5255 62be 5c57 1b3e 20d3 283e c6f7 39be
000000b0: 640c b9be 8151 933e bf13 b0bd c849 eabd
000000c0: 7e75 84be ef84 bc3d 8ba1 8c3d 2eed 603e
000000d0: a52e 9c3e a100 213e cc66 033d 384b 4b3e
000000e0: 3d19 493e 1aad f1bd 173d 7ebe 2e2e 80be
000000f0: 4fbc 14be bcf5 cc3d 0950 51bc e998 5ebe
00000100: 9175 f83d 5de6 903d 1c26 9abe 463a aa3e
00000110: 8801 be3e e688 053e 1e99 a4bd e28e 3d3e
00000120: 9bf4 c63e cb4b 863d 2dd5 6ebe 98d1 e7bd
00000130: e80e 5e3e a55b fb3d 1812 8a3d 390b f1bd
00000140: 02d5 673d c493 81be 2521 d4bc 61a4 91bd
00000150: 8089 be3e 7b95 893e 9093 6f3d b09e ac3d
00000160: c9e7 4abe 02a5 42be bcd8 ae3e 99cc 883e
00000170: ee5a 4c3e f857 b1bd 6098 7fbd 0079 1ebc
00000180: fcb6 503e 0f79 5cbe 5488 68be 3594 17bd
00000190: 93f4 da3e 3489 fa3c 87f9 f13d 9398 433e
000001a0: b4a5 0fbe 3bb1 f8bd 259f 243e 8331 e13d
000001b0: 23ad cebd 862b cc3d 90ad 9c3e 00e3 b23e
000001c0: 42fa 333e a5c6 1a3e 17a7 5b3e c8a1 9f3c
000001d0: 7bcf 25be 6e4f 2f3e 5aee cf3e b3ff 563e
000001e0: 875a a13e 11c6 41bd 90dd b5bb b448 513e
000001f0: 5107 993d 845f 753e db04 9fbe ea84 443e
00000200: 6a22 4abe 5864 2bbe 887c debe 2d95 77be
00000210: b74f 853e 6975 9b3e d236 b23e 042a 42be
00000220: c5d5 b4bc 3d93 c5bd b305 cb3d 0568 e83e
00000230: c207 b43e 792c 1c3e 29a6 32bd eeb0 20be
00000240: ccd4 86be 95dc 313f 56bb b6bd f3f6 46bc
00000250: fedb 763d 84c4 873d 0807 a7bd 1546 173e
00000260: 455d ecbd 5570 813e 9eb8 83be 605a 48bc
00000270: bbd6 1cbe 446d fbbd 918b 0a3d 2d61 933c
00000280: a4c4 60be 185c 00bd 77e3 eb3d 04e3 29be
00000290: 343a 2dbe 6dfc c0be 51b5 dcbe 0908 1ebe
000002a0: 6d6b a73e efa9 673e fb2b 503e 0b78 563e
000002b0: 4fff c9bc 303b babc 7a2c 0dbe 48f2 11be
000002c0: 214f b5be a5fa adbc 4391 d63c 8118 f93d
000002d0: 1446 7a3e 5113 d33d 72d3 4ebe c520 1abe
000002e0: 2341 153e a046 d1ba 2e5d 8ebe 594f adbe
000002f0: 5dc1 aa3e 9cae c93d 64d6 063d e23f 04bb
00000300: 8be0 cb3d 5dcd 83be 3f26 92be b27d 2f3e
00000310: 1516 823d 6b07 e1bd 11ba f83e 0579 acbc
00000320: 780e 023f 6b23 553c 839c 2e3d a7ad e73c
00000330: 9e70 68bd 4434 063e 8d07 d83d 1e4e fa3d
00000340: aae6 0b3e f6e6 74be 5693 0bbe 270a 62bb
00000350: baaf a4bd 7a60 82be dd12 73be 0785 d13d
00000360: 8cfa e83d 9a15 a4bd cde3 fd3d 105a 04be
00000370: 802b 0d3f c364 13be 8c3d 22be 5936 243e
00000380: acec 06bd d3f1 8a3e 5a2f dabd 6b4d fb3d
00000390: f6b9 733e b78d cbbc fa03 ec3d 733a 0dbe
000003a0: 19c2 a13e 5b53 b7bd da61 583e 387e d83d
000003b0: 6e35 93be 69f2 803e 03fb bebc 0111 c03e
000003c0: 882f eabc 7c8c da3d ce7e 38bf b99d 073f
000003d0: e8c6 04be 56de 073e c15f 19bd 1587 e83d
000003e0: f059 6e3d 23cd 633e 6715 153e 1e8e 463e
000003f0: 8c6c 793e cd36 4cbd 03d7 97bc 2cd7 353f

linear1.bias f4 [256]
-0.31731996 -0.22268769 -0.13733202 0.089995496 0.27585652 -0.43148404 -0.18617116 0.03074551
0.00898091 0.22442517 -0.182699 0.3107204 -0.05475509 0.084110744 -0.17989245 0.29017252
0.19080585 -0.14819333 0.11077447 -0.35522148 -0.21903019 -0.09939497 0.1849903 -0.21067964
0.2014243 -0.027458653 -0.2873585 0.092611246 0.05690129 0.022612844 -0.2019243 0.105358616
-0.095932506 -0.16484143 0.0741906 0.2838123 0.16005759 -0.14617962 0.2748048 -0.18967254
0.28078136 0.15836057 -0.16971166 -0.12050602 0.27217737 0.0015318093 -0.1892202 0.039023355
0.041351832 0.009673345 0.32442275 0.037394054 0.020864375 0.11154628 0.2389596 -0.07871101
-0.15545553 0.062552065 0.058545057 -0.21383974 0.08070751 -0.29728878 0.12672159 -0.09031081
-0.01312369 -0.18242325 -0.19195087 0.24026844 -0.19014408 0.42460826 0.2941471 -0.16217329
-0.22935371 -0.2285324 -0.0075153895 0.025127167 0.17381863 0.060508784 -0.07738324 0.039723393
-0.2408323 0.20601396 0.12783195 -0.026100656 0.12466646 -0.3773015 0.20911236 0.10879746
0.047906823 -0.092383504 -0.29662234 -0.028248137 0.15100856 -0.09659443 0.081831336 0.061217487
0.16710214 -0.022615261 -0.20173255 -0.20517194 -0.21450794 0.143422 -0.13923872 -0.045984
-0.16392063 0.04080309 0.041874006 0.007595607 -0.1912542 -0.2832597 -0.027607743 0.23946954
-0.22887406 -0.22343904 -0.00033051823 0.22922447 -0.112508215 -0.044447895 0.16493978 0.13370024
0.24350551 -0.14196172 -0.0041365526 0.055455424 0.09643716 -0.028369999 -0.21769354 0.022892155
-0.17932649 -0.022644559 -0.14283374 -0.09708123 0.04349286 -0.0903432 -0.28857768 -0.14435203
0.08288299 0.3728261 -0.17026807 0.1438529 -0.111096114 0.16219036 -0.08066261 -0.048045184
0.12967801 0.13430904 0.37709317 0.08449549 0.27452835 -0.26067513 0.07194622 -0.20329589
0.008443239 0.33919778 -0.159052 0.25950807 -0.014754276 -0.21362364 0.033918776 0.101287395
-0.19985217 0.027264548 -0.31210658 -0.16644852 -0.18904044 -0.25399268 0.019436609 0.0020539323
0.14970578 -0.26333675 0.24793464 0.070572205 -0.07436718 -0.04028913 0.13839884 -0.04483405
-0.004065969 -0.07627885 0.15859073 0.16779888 0.02769005 0.39039692 0.044007827 -0.17458606
-0.060695443 -0.22570838 -0.070401855 0.32772177 0.04760792 0.06467905 0.14126512 -0.008614726
-0.20857644 -0.087182775 0.006478643 -0.18277764 -0.0068052476 0.11487834 0.24514422 -0.118020415
0.19937155 -0.1052748 0.06351343 -0.21706016 -0.25281933 -0.16810493 -0.23191868 0.071363196
0.00035536458 -0.26113567 0.06361339 0.20640792 -0.16870785 0.17708772 -0.4222976 -0.035671182
-0.038003616 -0.13988204 0.115888506 0.10287023 -0.22927372 0.17517142 0.24019071 0.14703725
0.16385555 -0.031409997 -0.2652448 0.0456441 0.33725634 -0.07484296 -0.19659781 -0.0078037307
-0.20546138 0.09935274 0.34329212 0.022093652 0.07828184 -0.11619408 -0.025650546 -0.039839808
-0.059910055 0.10338157 0.053735845 0.08107075 0.25860602 -0.10200614 -0.20070645 -0.028321685
0.22735897 -0.106600314 0.01601086 -0.2070302 0.0578086 0.065485746 0.1705389 -0.19097692
00000000: c377 a2be 3e08 64be c4a0 0cbe 8f4f b83d
00000010: 113d 8d3e 7aeb dcbe a7a3 3ebe 02de fb3c
00000020: ab24 133c b6cf 653e 7215 3bbe bf16 9f3e
00000030: e046 60bd 4142 ac3d ba35 38be 7e91 943e
00000040: 9c62 433e febf 17be badd e23d 97df b5be
00000050: 7349 60be 978f cbbd 196e 3d3e 67bc 57be
00000060: 2c42 4e3e f8f0 e0bc a720 93be f7aa bd3d
00000070: 5411 693d 923e b93c 3ec5 4ebe 42c6 d73d
00000080: 4378 c4bd 31cc 28be 3ef1 973d d94f 913e
00000090: 23e6 233e 1cb0 15be 37b3 8c3e 8539 42be
000000a0: 93c2 8f3e 4629 223e e5c8 2dbe dccb f6bd
000000b0: d55a 8b3e fec6 c83a f1c2 41be f4d6 1f3d
000000c0: 8a60 293d f37c 1e3c bd1a a63e 822a 193d
000000d0: c4eb aa3c 6072 e43d d3b1 743e 3d33 a1bd
000000e0: bc2f 1fbe 4c1b 803d f1cc 6f3d cef8 5abe
000000f0: fb49 a53d 3c36 98be 4ec3 013e e0f4 b8bd
00000100: bf04 57bc 29cd 3abe c58e 44be ee08 763e
00000110: 21b5 42be 4166 d93e 739a 963e c110 26be
00000120: b3db 6abe 6604 6abe a843 f6bb 7dd7 cd3c
00000130: 83fd 313e 0fd8 773d 1b7b 9ebd ffb4 223d
00000140: be9c 76be 53f5 523e 61e6 023e 0bd1 d5bc
00000150: 2151 ff3d aa2d c1be 8d21 563e 34d1 de3d
00000160: f239 443d 9033 bdbd e2de 97be a368 e7bc
00000170: fda1 1a3e 4dd3 c5bd 3097 a73d 30bf 7a3d
00000180: d31c 2b3e a443 b9bc fa92 4ebe 9818 52be
00000190: f8a7 5bbe 37dd 123e 9894 0ebe b859 3cbd
000001a0: cfda 27be 2421 273d 1484 2b3d 92e4 f83b
000001b0: 24d8 43be 6a07 91be a229 e2bc 8137 753e
000001c0: f65d 6abe 34cd 64be 6849 adb9 d2b9 6a3e
000001d0: b56a e6bd ff0e 36bd f9e5 283e b7e8 083e
000001e0: 8259 793e 6a5e 11be eb8b 87bb 3a25 633d
000001f0: d980 c53d 3368 e8bc 0eeb 5ebe 5488 bb3c
00000200: 5da1 37be 1581 b9bc 0243 12be 86d2 c6bd
00000210: 9225 323d db05 b9bd 74c0 93be 05d1 13be
00000220: 8fbe a93d 10e3 be3e c15a 2ebe 2d4e 133e
00000230: 5c86 e3bd 3b15 263e 7032 a5bd 07cb 44bd
00000240: 50ca 043e 4f88 093e 5b12 c13e f90b ad3d
00000250: fb8e 8c3e 3677 85be 8a58 933d cc2c 50be
00000260: 8355 0a3c 55ab ad3e 87de 22be 3ede 843e
00000270: ebbb 71bc 28c0 5abe 6aee 0a3d c46f cf3d
00000280: 0ca6 4cbe e759 df3c 6fcc 9fbe 7b71 2abe
00000290: d193 41be 540b 82be 8639 9f3c 449b 063b
000002a0: 794c 193e 13d4 86be 94e2 7d3e 2988 903d
000002b0: d24d 98bd 3706 25bd 6db8 0d3e e9a3 37bd
000002c0: d23b 85bb 1638 9cbd 9c65 223e 78d3 2b3e
000002d0: 3ed6 e23c 1be2 c73e 8d41 343d b0c6 32be
000002e0: c99b 78bd 1920 67be d92e 90bd 26cb a73e
000002f0: 8600 433d 7376 843d cea7 103e c824 0dbc
00000300: 1095 55be e28c b2bd cc4a d43b 102a 3bbe
00000310: 8efe debb 5645 eb3d 1607 7b3e b0b4 f1bd
00000320: 0e28 4c3e 509a d7bd 5413 823d 0545 5ebe
00000330: 8971 81be b323 2cbe 177c 6dbe de26 923d
00000340: 3a50 ba39 93b3 85be bd47 823d 995c 533e
00000350: c0c1 2cbe 7c56 353e 6437 d8be f21b 12bd
00000360: aea9 1bbd 3d3d 0fbe f456 ed3d a1ad d23d
00000370: bbc6 6abe 2360 333e 8ef4 753e ef90 163e
00000380: c0c9 273e c5a7 00bd 2bce 87be 4ff5 3a3d
00000390: ddac ac3e 4447 99bd f050 49be 70b6 ffbb
000003a0: 7864 52be 7379 cb3d fcc3 af3e bffd b43c
000003b0: 3b52 a03d 29f7 edbd 1821 d2bc 112f 23bd
000003c0: 3f64 75bd b7b9 d33d 1e1a 5c3d 6c08 a63d
000003d0: 0268 843e 98e8 d0bd fe85 4dbe e102 e8bc
000003e0: cad0 683e 4451 dabd 3529 833c baff 53be
000003f0: b6c8 6c3d 641d 863d c0a1 2e3e 748f 43be

linear2.weight f4 [3, 256]
-0.0007965783 -0.13450584 -0.28596938 0.09414526 0.010219612 0.013103899 0.13350959 -0.17687127
0.2506846 -0.019587822 -0.14523011 0.1878617 -0.18684149 0.040522262 0.059383005 0.1672394
0.114792824 -0.1550341 -0.096257865 0.012502643 -0.36972445 0.18185617 0.17958894 0.091721416
0.2586246 -0.5700772 -0.02382981 -0.30378276 -0.10002278 -0.21001649 0.34570253 -0.26946452
-0.30920538 0.27490264 0.102982506 0.1336897 0.014469763 -0.19452854 0.1123065 -0.23400685
0.3744903 0.2789117 -0.0603354 0.35192913 0.25093636 -0.11806627 0.02768068 0.010041492
0.23029813 -0.26289517 0.0058985725 -0.066297844 -0.10646849 -0.12284656 0.04286916 0.22047396
0.06035281 -0.053621776 0.10498695 -0.24510501 -0.14445406 -0.04698808 -0.14505531 -0.23112957
-0.37688288 0.009212583 -0.15973747 0.12869617 0.19936304 0.18483305 0.30757454 -0.16598757
0.1473522 -0.18188076 0.0025707027 -0.13954663 0.14468122 -0.14682403 -0.056049217 0.12426816
-0.08479616 0.28633013 0.2887623 -0.1582221 0.2617827 -0.0068484508 -0.14721753 0.23384443
-0.082358465 0.21193962 0.276555 0.23106645 0.28769904 -0.286164 0.103326954 0.105265826
0.11096372 -0.27350667 -0.3310364 0.0328961 -0.23186627 -0.15777409 -0.5105036 -0.04324742
-0.15459205 -0.036720555 -0.19515586 -0.15160313 -0.23496252 0.04271803 -0.17534609 0.26186848
-0.36955193 -0.25220922 -0.18824552 0.03344809 0.08776072 0.19981985 -0.026064139 0.07576451
0.12833166 0.044181835 -0.29881257 0.13322031 -0.24084204 0.26225632 -0.24425134 0.08967277
-0.16865921 -0.12304989 -0.3691751 0.07765303 0.13587107 -0.11468595 0.25422612 0.13025972
-0.18998376 0.17834209 -0.21788411 -0.22092128 -0.044607975 -0.024840895 -0.20333545 -0.06802862
-0.14392176 -0.009061533 0.16397738 0.26378638 0.22997378 -0.05093468 0.06601972 -0.029297115
0.06315832 0.13488157 -0.0128350025 0.17094323 -0.26883143 -0.28860253 0.0750336 -0.06555301
0.25721306 -0.12244674 0.03591025 -0.2890652 -0.09497341 0.07060908 0.40307748 -0.33235288
-0.10764308 -0.43447557 0.32945088 -0.26048762 -0.28898874 -0.27001765 0.009238005 -0.54826415
-0.11084384 0.35078463 0.1807691 -0.02304559 -0.083606854 0.17483923 -0.11740267 0.1922709
-0.12886733 -0.19381566 0.0961726 0.03864145 -0.48797143 0.06064937 -0.170655 0.401121
-0.29048273 -0.36207652 0.17019317 -0.08899582 -0.16663522 -0.0437379 -0.03716796 0.017762437
-0.06619152 -0.6011421 -0.036574587 -0.2850106 -0.0919613 -0.36871335 0.006143891 0.2526809
0.25821579 -0.2922751 -0.013713223 0.07305831 -0.06173461 0.06373022 0.101392426 0.1780296
0.26723838 0.08608554 -0.027016174 -0.102820486 -0.18462826 0.3293134 -0.027102292 0.049733493
0.04667949 -0.16853805 -0.019526118 -0.1986341 -0.034776594 -0.15253648 0.010410407 0.06776449
-0.49555746 -0.37610775 0.31436235 -0.0889446 -0.0068604606 -0.29498574 -0.47154278 -0.25693032
-0.21463029 0.14605059 -0.10979854 -0.3589898 0.3140285 -0.27879104 -0.48828554 -0.14703363
0.56488895 0.14497413 -0.10739395 -0.28051963 -0.03571843 0.15312348 -0.17096432 -0.32016018
00000000: 77d1 50ba e6bb 09be 946a 92be 3bcf c03d
00000010: 2970 273c bcb1 563c bdb6 083e be1d 35be
00000020: bb59 803e a476 a0bc 34b7 14be d15e 403e
00000030: 6053 3fbe acfa 253d 983b 733d ce40 2b3e
00000040: 8018 eb3d 42c1 1ebe d822 c5bd e3d7 4c3c
00000050: 864c bdbe 8138 3a3e 2ae6 373e 70d8 bb3d
00000060: 726a 843e 94f0 11bf bc36 c3bc 6a89 9bbe
00000070: bed8 ccbd 900e 57be ecff b03e 41f7 89be
00000080: 2b50 9ebe 0ac0 8c3e 7ee8 d23d f4e5 083e
00000090: 9612 6d3c 7d32 47be f300 e63d 7e9f 6fbe
000000a0: 31bd bf3e 84cd 8e3e 4122 77bd 0e30 b43e
000000b0: bb7a 803e bbcc f1bd 98c2 e23c 1285 243c
000000c0: 46d3 6b3e 329a 86be d048 c13b 2ac7 87bd
000000d0: 270c dabd fa96 fbbd 9397 2f3d edc3 613e
000000e0: 8234 773d 82a2 5bbd 6603 d73d cffc 7abe
000000f0: c4eb 13be 9376 40bd 6189 14be 3bad 6cbe
00000100: cbf6 c0be 60f0 163c 3892 23be eec8 033e
00000110: d325 4c3e e044 3d3e 697a 9d3e a5f8 29be
00000120: 7fe3 163e f33e 3abe 3c79 283b 50e5 0ebe
00000130: 5027 143e 0a59 16be dd93 65bd 4e80 fe3d
00000140: 9ca9 adbd dd99 923e a7d8 933e f904 22be
00000150: 6208 863e f868 e0bb 31c0 16be ea74 6f3e
00000160: 8eab a8bd b306 593e 9e98 8d3e af9c 6c3e
00000170: 4a4d 933e 1684 92be 159d d33d 9c95 d73d
00000180: f240 e33d 1109 8cbe 9a7d a9be 10be 063d
00000190: 5a6e 6dbe 888f 21be 5db0 02bf 3524 31bd
000001a0: 614d 1ebe 4b68 16bd f0d6 47be da3d 1bbe
000001b0: 049a 70be 1af9 2e3d ed8d 33be a013 863e
000001c0: e935 bdbe 9121 81be 6fc3 40be dd00 093d
000001d0: e4bb b33d 939d 4c3e 7684 d5bc 6c2a 9b3d
000001e0: 6069 033e 03f8 343d f6fd 98be e86a 083e
000001f0: 4c9f 76be 7646 863e 061d 7abe 5ba6 b73d
00000200: 00b5 2cbe 9501 fcbd 8504 bdbe 8d08 9f3d
00000210: c921 0b3e 78e0 eabd ed29 823e ce62 053e
00000220: 1a8b 42be 4f9f 363e 031d 5fbe 3039 62be
00000230: dab6 36bd 227f cbbc 2b37 50be 9752 8bbd
00000240: 3a60 13be d376 14bc b0e9 273e 020f 873e
00000250: 3f7e 6b3e e2a0 50bd 5935 873d 8100 f0bc
00000260: 2659 813d 651e 0a3e e749 52bc be0b 2f3e
00000270: 46a4 89be b6c3 93be 37ab 993d a840 86bd
00000280: 6eb1 833e 5bc5 fabd a016 133d 5b00 94be
00000290: 6b81 c2bd 7e9b 903d 2c60 ce3e 282a aabe
000002a0: fa73 dcbd 9573 debe c9ad a83e a25e 85be
000002b0: 55f6 93be c13f 8abe 005b 173c 0a5b 0cbf
000002c0: 1802 e3bd 0b9a b33e 891b 393e 1bca bcbc
000002d0: 123a abbd 0e09 333e d070 f0bd aae2 443e
000002e0: ccf5 03be 9d77 46be 24f6 c43d 7f46 1e3d
000002f0: 64d7 f9be 796b 783d 2fc0 2ebe bb5f cd3e
00000300: 27ba 94be 1862 b9be 1e47 2e3e 7143 b6bd
00000310: 6ca2 2abe 8326 33bd 6e3d 18bd 8882 913c
00000320: 6b8f 87bd 73e4 19bf 3ccf 15bd e9ec 91be
00000330: 3556 bcbd ffc7 bcbe b152 c93b 645f 813e
00000340: dc34 843e 15a5 95be 6dad 60bc 989f 953d
00000350: 6edd 7cbd fd84 823d d5a6 cf3d 644d 363e
00000360: 78d3 883e 9e4d b03d 0651 ddbc 8c93 d2bd
00000370: 310f 3dbe c49b a83e a005 debc 59b5 4b3d
00000380: fe32 3f3d 3d95 2cbe 3df5 9fbc bd66 4bbe
00000390: e771 0ebd 8632 1cbe 6990 2a3c 1cc8 8a3d
000003a0: b5b9 fdbe 3291 c0be 1af4 a03e 9628 b6bd
000003b0: b7cd e0bb 5f08 97be 0e6e f1be 5f8c 83be
000003c0: 0bc8 5bbe 498e 153e 0fde e0bd 83cd b7be
000003d0: 58c8 a03e b3bd 8ebe 9000 fabe fc8f 16be
000003e0: 909c 103f 1974 143e 5cf1 dbbd 45a0 8fbe
000003f0: 7d4d 12bd 67cc 1c3e 4511 2fbe 09ec a3be

linear2.bias f4 [3]
0.075715214 -0.10058989 -0.091465496
00000000: 9410 9b3d 1202 cebd 4352 bbbd
