Snake+AI/model/model.pth (torch, 16787 bytes, 4 tensors)

linear1.weight f4 [256, 11]
0	0x3eec622e	0.46168655
1	0xbe5a57b5	-0.2132252
2	0xbe09e593	-0.13466482
3	0x3e213fe8	0.15747035
4	0xbea3aed3	-0.31969318
5	0x3e2882fd	0.16456218
6	0x3e61b0f9	0.22040166
7	0xbdb031f3	-0.08603277
8	0xbdba265b	-0.09089347
9	0xbef7a7f9	-0.4837034
10	0xbec47927	-0.38373682
11	0xbdb70e69	-0.089382954
12	0xbea054bd	-0.3131465
13	0xbccda072	-0.02510092
14	0xbe599249	-0.2124721
15	0x3d96c05a	0.07360907
16	0x3f17d97e	0.5931624
17	0xbe59e9f7	-0.21280657
18	0xbf2e62c9	-0.68119484
19	0xbf0b1fad	-0.5434521
20	0x3e9fc76e	0.3120684
21	0xbf058b8a	-0.52166045
22	0xbec449ec	-0.38337648
23	0x3e459492	0.19294956
24	0x3ec1fae0	0.37886715
25	0xbe46a66d	-0.19399424
26	0x3cf22756	0.029559772
27	0xbcf81f36	-0.03028832
28	0x3c7c9179	0.015415543
29	0x3e890dc1	0.26768306
30	0xbc70bf1f	-0.014694004
31	0xbde25abc	-0.110524625
32	0xbe4b715b	-0.1986746
33	0xbedbd6cc	-0.42937315
34	0x3f007109	0.5017248
35	0xbe846d87	-0.25864813
36	0x3e953c14	0.29147398
37	0x3e8a96b6	0.27068108
38	0x3d5720ea	0.052521624
39	0x3e9dfb3d	0.30855742
40	0xbea3d015	-0.31994691
41	0xbe205082	-0.15655711
42	0xbd6182ae	-0.055056266
43	0xbe55ccc9	-0.208789
44	0x3d8b811b	0.06811734
45	0xbf048ce1	-0.51777464
46	0xbf18d76f	-0.59703726
47	0xbde26ce9	-0.11055929
48	0xbd6c6522	-0.057713635
49	0xbf233b1d	-0.63762075
50	0x3f1deb2f	0.61686987
51	0xbf0a715e	-0.54079235
52	0xbe8ae4c8	-0.2712767
53	0xbf3a5bdc	-0.72796416
54	0x3eda4d24	0.4263698
55	0x3e1b8535	0.15187533
56	0x3e6a1c10	0.22862267
57	0x3cb9927e	0.02265286
58	0xbe505b3f	-0.20347308
59	0xbd1a3bbd	-0.037654627
60	0xbd1f6047	-0.038910177
61	0x3c1a00f4	0.009399641
62	0x3dd68375	0.10474292
63	0x3e651299	0.22370376
64	0x3e26044f	0.16212581
65	0x3e1f7e0f	0.15575431
66	0x3ed68ec5	0.419058
67	0x3ec7c92f	0.39020678
68	0xbf2f3739	-0.6844364
69	0x3e13a96b	0.14420097
70	0xbd928598	-0.07154387
71	0x3e426fea	0.18988004
72	0x3e3b3282	0.18280986
73	0xbd6f5c14	-0.058437422
74	0xbca45135	-0.020058254
75	0xbed174ac	-0.40909326
76	0xbec72c34	-0.38900912
77	0xbec580c0	-0.3857479
78	0x3ef05565	0.4694015
79	0xbe702456	-0.23451361
80	0xbcb41a09	-0.02198507
81	0x3e88845b	0.2666348
82	0x3ea20dd9	0.3165119
83	0x3e6b04c7	0.22951041
84	0xbe15c21e	-0.14624831
85	0xbe4ece65	-0.20195921
86	0xbea5107d	-0.32239142
87	0xbec846c4	-0.3911649
88	0xbd4937e1	-0.049125556
89	0xbe94ca5f	-0.29060647
90	0x3ec7af95	0.39001146
91	0xbe8758ee	-0.26435035
92	0xbc4a9403	-0.01236439
93	0x3e0a77d0	0.13522267
94	0xbe6c7eeb	-0.2309529
95	0x3cc977c5	0.024593243
96	0xbe700b64	-0.23441845
97	0xbec46786	-0.38360232
98	0xbee1d6f9	-0.44109324
99	0x3ec7627e	0.3894233
100	0x3e821375	0.2540547
101	0x3e706ae0	0.2347827
102	0xbdc608c5	-0.096696414
103	0xbdd5a56d	-0.10431943
104	0xbc54d5b9	-0.012990409
105	0xbdd34df9	-0.103176065
106	0x3e9c1114	0.3048178
107	0x3e3471ea	0.1762158
108	0x3ecd333f	0.4007816
109	0x3ecd69d6	0.4011981
110	0x3e85c5d2	0.26127487
111	0x3e0f9ee7	0.1402546
112	0xbeace5e2	-0.33769137
113	0xbdee96cb	-0.11649855
114	0x3ebc0a83	0.3672677
115	0x3ec0467b	0.37553772
116	0x3bb99fba	0.005664793
117	0xbe690c72	-0.22758654
118	0x3de4a309	0.11163909
119	0x3c05b760	0.008161396
120	0xbeede842	-0.4646626
121	0xbe4164fe	-0.18886182
122	0xbedd22cc	-0.4319061
123	0x3e50acf1	0.20378472
124	0x3ef1ba12	0.47212273
125	0x3e912e7c	0.28355777
126	0xbe0e884d	-0.13919182
127	0xbee07b65	-0.43844143
128	0xbeb60f87	-0.3555872
129	0xbe3d7bfb	-0.18504326
130	0x3e7d83c3	0.24757294
131	0x3f0bd796	0.54625833
132	0x3b802bc5	0.0039114677
133	0xbec89229	-0.3917401
134	0x3f1a1533	0.601886
135	0x3da72fc5	0.08163408
136	0x3d2e231e	0.04251396
137	0xbe6c6524	-0.23085457
138	0x3dfe41f3	0.124149226
139	0x3e59b258	0.21259439
140	0xbde3d9b1	-0.11125506
141	0x3dad5051	0.08462585
142	0x3d331e55	0.0437301
143	0x3e84a8dd	0.25910082
144	0xbde5ab24	-0.11214283
145	0xbe6af80d	-0.22946186
146	0xbe83fb4e	-0.25777668
147	0xbe94ebd3	-0.2908617
148	0xbdb78374	-0.089606196
149	0xbe8714c4	-0.2638303
150	0xbd31b46d	-0.043384958
151	0x3dcd6cb1	0.10030497
152	0x3e20433b	0.15650646
153	0x3e5e7c4f	0.21727107
154	0xbf1218e5	-0.57069236
155	0x3f313922	0.692278
156	0xbd747b2a	-0.05968777
157	0x3e4baf28	0.19891036
158	0x3e069bbe	0.13145348
159	0xbe58f065	-0.21185453
160	0x3e27e0cc	0.16394347
161	0x3e8b760c	0.272385
162	0x3e63051d	0.2216992
163	0xbe353d87	-0.17699252
164	0x3e570274	0.2099703
165	0xbe08023b	-0.13282101
166	0xbf301192	-0.6877681
167	0x3a76df67	0.0009417445
168	0x3e86b881	0.2631264
169	0xbe90f0eb	-0.28308806
170	0x3ee8b6f2	0.45452076
171	0xbf261adf	-0.6488475
172	0xbe0e2039	-0.1387948
173	0xbee08574	-0.43851817
174	0x3ea11d50	0.31467676
175	0xbf326c7a	-0.6969677
176	0x3ef0d03f	0.4703388
177	0xbe7199a2	-0.23593763
178	0x3cf4415d	0.029816324
179	0x3f06b749	0.5262342
180	0xbe1265d2	-0.14296654
181	0x3e46ba48	0.19406998
182	0xbe42193a	-0.18954936
183	0xbefb7fe9	-0.49121025
184	0x3dab17d2	0.08354153
185	0xbe6a2334	-0.22864991
186	0x3da628cf	0.08113252
187	0xbf02ec74	-0.5114205
188	0x3d89e3c4	0.06732896
189	0x3e40d16c	0.18829888
190	0x3b9c4b26	0.0047697006
191	0xbe9bfa99	-0.30464628
192	0xbef6a37b	-0.481716
193	0x3d9053b0	0.07047212
194	0x3d5f9614	0.054586485
195	0xbed194f1	-0.40933946
196	0xbec735ce	-0.38908237
197	0x3e307e04	0.17235571
198	0x3e1f89e8	0.15579951
199	0x3f588550	0.8457842
200	0xbf0e4c0e	-0.555848
201	0xbc0a95f2	-0.008458601
202	0xbe094f2a	-0.13409105
203	0x3d6fd2d8	0.058550686
204	0xbed67700	-0.41887665
205	0x3e96c3b6	0.2944619
206	0xbe5b626b	-0.21424262
207	0xbd2e2dfa	-0.042524315
208	0x3ca7662a	0.020434458
209	0xbe1c709a	-0.15277329
210	0xbc9e635d	-0.01933449
211	0x3eabfdb2	0.33591992
212	0xbef43ecb	-0.47704157
213	0xbf07550b	-0.5286414
214	0x3e858162	0.26075274
215	0x3e97a9cd	0.29621735
216	0xbf01ef9b	-0.50756234
217	0xbf10bb5f	-0.56535906
218	0x3e87ea95	0.2654616
219	0x3e931196	0.28724355
220	0x3e74d5de	0.23909709
221	0xbd72af0f	-0.05924898
222	0xbd92d096	-0.07168691
223	0x3e6cf682	0.2314091
224	0x3eb8ac48	0.3606894
225	0xbeb5af45	-0.35485283
226	0xbdfb34fa	-0.12265964
227	0xbe8d3391	-0.27578405
228	0xbed0a51e	-0.40750974
229	0x3e98b813	0.29827937
230	0x3dd44fe5	0.10366801
231	0xbeefe2c2	-0.4685269
232	0x3f1297ad	0.5726269
233	0x3ecb80e2	0.39746767
234	0xbdb78f52	-0.08962883
235	0xbe5e1898	-0.2168907
236	0xbd9b981e	-0.075973734
237	0xbe812315	-0.25222078
238	0x3cc5becd	0.024138832
239	0x3c4a56a0	0.012349755
240	0x3e34085b	0.17581312
241	0xbe3ea657	-0.18618141
242	0xbe6dc9fe	-0.23221585
243	0xbf0e72b9	-0.556438
244	0x3eddee6e	0.4334597
245	0xbd6abb9d	-0.05730783
246	0x3df46b67	0.11934548
247	0xbdca9a04	-0.098926574
248	0xbefe1fd5	-0.4963366
249	0x3dc35e13	0.095394276
250	0x3ee2a1a2	0.4426394
251	0xbeadb215	-0.33924928
252	0xbefa83f1	-0.48928788
253	0x3f3655af	0.7122449
254	0xbe702253	-0.23450594
255	0xbef995f2	-0.48747212

linear1.bias f4 [256]
0	0x3e54a615	0.2076648
1	0xbe0dbea2	-0.13842252
2	0x3e714005	0.23559578
3	0x3f19283b	0.5982701
4	0x3d58a152	0.052888222
5	0xbe9b7448	-0.30362153
6	0x3e29afa7	0.16570912
7	0x3f4196f8	0.75620985
8	0xbe1519f0	-0.14560676
9	0xbe9f28b9	-0.31085756
10	0x3d5fb564	0.054616347
11	0xbe1be94d	-0.15225716
12	0xbdb35d09	-0.087579794
13	0xbe1da2e5	-0.1539417
14	0xbdf2a115	-0.1184713
15	0x3e85f25e	0.26161474
16	0xbd23f768	-0.040030867
17	0x3e7b403f	0.24536227
18	0xbcb31de2	-0.021864835
19	0x3e40d24e	0.18830225
20	0x3d8070ac	0.062714905
21	0xbe801f8b	-0.25024065
22	0x3d8d6045	0.069031276
23	0xbd519e55	-0.051176388
24	0xbe9952d1	-0.29945996
25	0x3e8e5dbd	0.27805892
26	0xbd7a9bee	-0.061183862
27	0xbe6ab4d6	-0.22920546
28	0xbde29911	-0.11064351
29	0x3e2b0e6a	0.16704717
30	0xbea7fd99	-0.32810667
31	0x3e2d1ae5	0.1690479
32	0xbdfef9f4	-0.124500185
33	0x3ec9b6f1	0.39397386
34	0xbe5f1db4	-0.21788675
35	0xbe8f1afe	-0.2795028
36	0xbe80bb1e	-0.2514276
37	0x3e0879fd	0.13327785
38	0xbe131752	-0.14364365
39	0xbddece67	-0.10879212
40	0xbeeab58d	-0.45841637
41	0x3d43c78d	0.04779773
42	0x3cd27c12	0.025693927
43	0x3d7577fd	0.059928883
44	0xbea9eddb	-0.33189282
45	0xbeb746fb	-0.3579634
46	0xbef11828	-0.47088742
47	0xbe1ed3e5	-0.15510519
48	0xbe9ad93b	-0.3024386
49	0xbed02990	-0.4065671
50	0xbe1b84fe	-0.15187451
51	0x3df70c6a	0.12062915
52	0x3ed7a923	0.4212123
53	0x3e03eca8	0.12883246
54	0xbeb82be5	-0.3597099
55	0x3e5c36ec	0.21505326
56	0x3dd1510c	0.102205366
57	0xbe2f84db	-0.17140524
58	0xbe8a6a59	-0.27034262
59	0xbeb6bb8a	-0.35689956
60	0x3ec35df3	0.38157615
61	0xbdd16039	-0.10223431
62	0xbdf83035	-0.1211857
63	0xbeeabc38	-0.45846725
64	0xbef19a75	-0.47188154
65	0xbe873028	-0.26403928
66	0xbcb7ba76	-0.022427779
67	0xbe744027	-0.23852597
68	0xbeb02a45	-0.3440725
69	0xbec6f61e	-0.38859648
70	0xbe8efb6d	-0.27926198
71	0xbd33bc6e	-0.043880872
72	0xbd04142b	-0.032245796
73	0xbd43b67a	-0.047781445
74	0xbd9729f7	-0.07381051
75	0xbf0a7248	-0.5408063
76	0xbe9ff2cb	-0.31239924
77	0x3ec45ef0	0.38353682
78	0x3df35653	0.118816994
79	0xbd19e0c3	-0.037567865
80	0xbe924167	-0.28565523
81	0x3e88f28c	0.2674755
82	0xbea39d1c	-0.31955802
83	0xbdae69ce	-0.085162744
84	0x3c257976	0.010099759
85	0xbeaa981d	-0.33319178
86	0xbe5b89fe	-0.21439359
87	0xbe9d21ea	-0.30689937
88	0x3f32600b	0.696778
89	0xbc636da2	-0.013881119
90	0xbc047a2e	-0.0080857705
91	0x3e202eb6	0.15642819
92	0xbcf333f0	-0.029687852
93	0x3dd20a1b	0.10255834
94	0xbe561af8	-0.20908725
95	0x3daa6d10	0.08321583
96	0x3d6a0e40	0.057142496
97	0x3df3d353	0.11905541
98	0xbe9afed9	-0.30272558
99	0x3e290f4f	0.16509746
100	0xbe702c3b	-0.23454373
101	0x3f2f1a80	0.6839981
102	0xbe200cea	-0.15629926
103	0x3edc2a5f	0.43001077
104	0x3f19f279	0.6013561
105	0x3e8713e2	0.26382357
106	0xbd9e025c	-0.07715294
107	0xbdc94a01	-0.09828568
108	0xbe829f98	-0.25512385
109	0xbe8ecd6b	-0.27891096
110	0xbeba13c6	-0.3634321
111	0xbe8fdfbc	-0.28100383
112	0xbeb18ba2	-0.34676844
113	0xbe44d499	-0.19221725
114	0x3e55b613	0.20870237
115	0x3e968ec3	0.29405794
116	0xbe1bdd78	-0.15221202
117	0xbec2ee74	-0.3807255
118	0xbd8399c3	-0.06425812
119	0xbe95061a	-0.29106218
120	0x3d93fbe4	0.07225779
121	0xbe8a47a1	-0.27007774
122	0xbd22c5f2	-0.039739557
123	0xbe8a7387	-0.27041265
124	0xbdf084a7	-0.117440514
125	0xbe8a574d	-0.2701973
126	0xbe882766	-0.2659256
127	0x3d9457a0	0.07243276
128	0x3ed90b52	0.4239145
129	0xbefe536d	-0.49673024
130	0x3e972a9c	0.29524696
131	0xbe8c8105	-0.27442184
132	0xbe7bf1e3	-0.24603991
133	0x3daa508e	0.08316146
134	0xbe4888ac	-0.19583386
135	0x3f1d02e2	0.61332524
136	0xbe592eb8	-0.21209228
137	0x3cb1aef1	0.021689864
138	0xbe2627a2	-0.16226056
139	0x3eb809d3	0.35944995
140	0xbba83696	-0.0051334603
141	0x3d91c602	0.07117845
142	0xbdfae5df	-0.12250876
143	0x3db67a9e	0.08910106
144	0xbe9c93c3	-0.30581483
145	0x3f106ca4	0.5641577
146	0xbd17c51b	-0.03705321
147	0xbe91ab35	-0.28450933
148	0xbee5960a	-0.44841033
149	0xbe513a21	-0.2043233
150	0xbd996631	-0.074901946
151	0xbe72d436	-0.23713765
152	0xbebdff0e	-0.37108654
153	0xbdc8c263	-0.09802701
154	0xbe3a09bf	-0.1816778
155	0xbe47d49d	-0.195147
156	0x3bfe82c0	0.0077670515
157	0x3e54c18d	0.20776959
158	0xbedba28c	-0.4289745
159	0xbe74fd2b	-0.23924701
160	0x3ea19f95	0.31567064
161	0xbd0dc158	-0.034608215
162	0xbd21126d	-0.039324213
163	0xbe6f6075	-0.23376639
164	0x3f00f839	0.5037876
165	0xbe9ccd28	-0.30625272
166	0xbd97883e	-0.07399033
167	0xbcd36130	-0.025803179
168	0xbeb2f71c	-0.34954154
169	0xbec55a67	-0.38545534
170	0x3e37b163	0.17938761
171	0x3d71bcd8	0.059017986
172	0xbe91b37b	-0.28457245
173	0xbe31c644	-0.17360789
174	0x3e037474	0.12837392
175	0xbe134a0d	-0.14383717
176	0xbe5d922a	-0.21637788
177	0xbdab7686	-0.08372216
178	0xbde34ccb	-0.110986315
179	0x3ea3903b	0.31945977
180	0x3e09f702	0.13473132
181	0xbea85c1c	-0.32882774
182	0xbe7f57b5	-0.24935801
183	0xbeafc7f0	-0.34332228
184	0x3f0e1684	0.55503106
185	0xbdc7b669	-0.09751589
186	0xbed227e0	-0.41046047
187	0x3e017420	0.12641954
188	0xbdb236a0	-0.08701825
189	0x3e81b60a	0.25334197
190	0xbe6e204c	-0.23254508
191	0xbdec9039	-0.11550946
192	0xbec6df3a	-0.38842183
193	0xbea92fd6	-0.33044308
194	0xbdf42b74	-0.119223505
195	0xbeb32db0	-0.34995794
196	0x3e4715f8	0.19441974
197	0x3f04189d	0.51600057
198	0xbbed1b25	-0.007235902
199	0xbe14f96b	-0.1454827
200	0xbdd8c7ba	-0.1058497
201	0xbd6a1878	-0.05715224
202	0x3dd8c7cb	0.105849825
203	0xbdae0fab	-0.08499082
204	0xbe3d51bb	-0.18488209
205	0x3ec84db4	0.39121783
206	0x3e16d052	0.14727905
207	0xbe771f0d	-0.24132939
208	0xbe8cef81	-0.27526477
209	0xbea1b70b	-0.31584963
210	0xbde14ad1	-0.11000598
211	0x3e1b5bbc	0.15171713
212	0xbe316c62	-0.17326501
213	0xbe9b0718	-0.3027885
214	0xbdff89d0	-0.124774575
215	0xbe03905b	-0.12848036
216	0xbe9d52c3	-0.30727205
217	0xbe4765a9	-0.19472374
218	0xbe83e3b9	-0.25759676
219	0xbe1f30c4	-0.15545946
220	0x3f17ad1f	0.59248537
221	0x3db600c8	0.08886868
222	0xbddcbbd9	-0.107780166
223	0xbe90ed8a	-0.28306228
224	0xbaaf208b	-0.0013361139
225	0xbcaabf58	-0.020843193
226	0x3e141849	0.14462389
227	0xbee47db0	-0.44627142
228	0x3d25d9c7	0.04049089
229	0xbd6ff3e3	-0.058582198
230	0xbe721c04	-0.236435
231	0xbe1ac85e	-0.15115497
232	0x3d5e9a6e	0.054346494
233	0xbe184f95	-0.14874108
234	0xbba5e669	-0.0050628674
235	0xbcf77c89	-0.03021075
236	0xbd3c172a	-0.04592053
237	0xbe0a1fb0	-0.1348865
238	0xbe6a7929	-0.22897781
239	0x3f0a5b2f	0.54045385
240	0xbc98f672	-0.018672202
241	0xbe50b865	-0.20382841
242	0xbdc8edc0	-0.09810972
243	0xbe2f392f	-0.17111658
244	0x3e949d95	0.29026476
245	0xbe80e944	-0.25177968
246	0xbea9f4c2	-0.33194548
247	0x3ce15e3f	0.02751076
248	0xbeac3c41	-0.3363972
249	0xbeaa8767	-0.3330643
250	0xbe4657b0	-0.19369388
251	0xbe25e3d1	-0.16200186
252	0x3cf6f2d5	0.030145088
253	0xbe27cad4	-0.16385967
254	0x3e2970c1	0.16546918
255	0xbe5706fe	-0.20998761

linear2.weight f4 [3, 256]
0	0x3d509baf	0.05092972
1	0x3ef61bbf	0.48068044
2	0x3d484474	0.048893407
3	0x3e974ee8	0.29552388
4	0x3ee5f650	0.44914484
5	0xbbefd175	-0.0073186704
6	0x3db1d038	0.08682293
7	0x3ea4ec50	0.32211542
8	0x3cd23921	0.025662007
9	0xbdc78600	-0.09742355
10	0x3df9023d	0.1215863
11	0xbea5e673	-0.3240238
12	0x3d4f2273	0.050569963
13	0xbd84744a	-0.06467493
14	0x3e1008b5	0.14065821
15	0x3ed110bd	0.40833083
16	0xbea16eda	-0.31529886
17	0x3e40f74d	0.18844338
18	0x3d7f8fe0	0.06239307
19	0x3f0975b2	0.53695214
20	0xbe4cdf9a	-0.20007172
21	0x3d805377	0.0626592
22	0x3e8a2d5d	0.26987734
23	0xbc25f4d8	-0.010129176
24	0x3943fd40	0.00018690992
25	0x3eb25cc9	0.34836414
26	0xbcb4e2b4	-0.022080757
27	0xbc8c98e2	-0.017162744
28	0xbdd35b27	-0.1032012
29	0xbe70ad34	-0.23503572
30	0xbf23de9c	-0.6401155
31	0x3edf3769	0.43596962
32	0xbf26279b	-0.64904183
33	0x3e6f510f	0.23370765
34	0x3d453676	0.04814764
35	0xbe433eac	-0.19066876
36	0xbce87434	-0.028375722
37	0xbe9587ed	-0.29205266
38	0x3ceae56d	0.028673852
39	0x3db77d29	0.08959419
40	0xbe52fea7	-0.20604955
41	0xbeac74e5	-0.33682933
42	0xbe8b7226	-0.27235526
43	0x3e0cfa1a	0.13767281
44	0x3bcfa0f6	0.0063363267
45	0xbe185135	-0.14874728
46	0x3d18f74e	0.037345223
47	0xbd813dc6	-0.063106105
48	0x3d573c50	0.052547753
49	0xbeae4f4a	-0.34044868
50	0xbe8581d3	-0.2607561
51	0x3ef5d78b	0.4801601
52	0x3f23b4f1	0.6394797
53	0xbe90e9d0	-0.28303385
54	0xbe7202d7	-0.23633896
55	0x3ed9646a	0.42459422
56	0xbebc30e6	-0.36756057
57	0xbd5cc7d2	-0.0539015
58	0xbdb8580e	-0.0900117
59	0xbcd0d2c9	-0.025491135
60	0x3e964007	0.29345724
61	0xbf1f6667	-0.6226563
62	0xb4e635fc	-4.2880117e-07
63	0xbe5e117b	-0.21686356
64	0xbd00e2db	-0.031466346
65	0xbe2ed7cf	-0.17074512
66	0xbd74f1b2	-0.05980081
67	0x3ce6c677	0.028170807
68	0x3b380171	0.002807703
69	0xbd4d92a2	-0.050188668
70	0xb9e9c800	-0.00044590235
71	0xbea132e4	-0.3148414
72	0xbe781808	-0.24227917
73	0x3e3fa56c	0.18715447
74	0x3efc1d7c	0.49241245
75	0xbe0527b9	-0.13003434
76	0xbd2439dd	-0.040094245
77	0x3e6b6008	0.22985852
78	0x3eddaeed	0.4329752
79	0xbefbe42c	-0.4919752
80	0xbea948ec	-0.33063447
81	0x3ef3d6a2	0.4762469
82	0xbde6a159	-0.112612434
83	0xbd60bf7e	-0.05487012
84	0x3d37aac6	0.044840597
85	0xbe1bce51	-0.15215422
86	0xbcf20d19	-0.029547261
87	0xbb8ca3d9	-0.004291993
88	0x3e7df370	0.24799895
89	0xbe27ecf3	-0.16398983
90	0x3ed1909e	0.40930647
91	0x3e032682	0.12807658
92	0x3ae12cc6	0.0017179481
93	0x3ea9dc25	0.3317577
94	0xbb8c3c57	-0.004279654
95	0x3d71a245	0.058992643
96	0x3e8adb2d	0.27120343
97	0x3e115ca2	0.14195493
98	0x3baae859	0.0052156863
99	0xbd3d1fc8	-0.046172887
100	0xbce673bb	-0.028131356
101	0x3e92f60d	0.28703347
102	0xbe908c36	-0.28231972
103	0x3e8127e6	0.25225753
104	0x3e54e38a	0.20789924
105	0x3e3c9b6e	0.18418667
106	0xbe8a9724	-0.27068436
107	0xbee039a0	-0.43793964
108	0xbe016a17	-0.12638126
109	0xbc9dd709	-0.019267576
110	0x3da1ccab	0.079003654
111	0xbd79f785	-0.06102707
112	0x3cfb5d64	0.03068418
113	0xbcc68627	-0.02423389
114	0x3e349fd7	0.17639099
115	0x3e5dc339	0.21656503
116	0x3ce52625	0.02797229
117	0xbe656043	-0.22400002
118	0xbd80e994	-0.062945515
119	0xbc7ffa8c	-0.0156237
120	0xbf1d53aa	-0.61455786
121	0x3c7eeb58	0.01555904
122	0xbdc9a64e	-0.09846173
123	0x3dbff0f8	0.09372133
124	0xbd0a8ce4	-0.03382577
125	0xbcfe8f9a	-0.031074334
126	0xbd65f501	-0.056141857
127	0xbe3cfdec	-0.18456239
128	0x3eb4a248	0.3528006
129	0xbef142e5	-0.4712135
130	0x3ef35315	0.47524324
131	0x3c0755c1	0.008260191
132	0xbd4c0295	-0.04980715
133	0x3c5efc31	0.013609932
134	0xbda94576	-0.08265202
135	0x3e83e8b7	0.25763485
136	0x3c81adcc	0.015829943
137	0xbeacd5ca	-0.33756858
138	0xbf2571eb	-0.6462695
139	0x3ea671e5	0.3250877
140	0xb9e140c3	-0.00042963595
141	0xbdba4524	-0.09095219
142	0x3d2dc792	0.042426653
143	0x3f079d3b	0.5297429
144	0xbc02a0a3	-0.007972869
145	0x3ee5ae81	0.44859698
146	0xbf024eba	-0.5090138
147	0xbe5057f3	-0.2034605
148	0x3b0fa5de	0.0021918933
149	0x3d8e304c	0.06942806
150	0xbef72b14	-0.48275054
151	0x3c746621	0.014916928
152	0xbc849ebe	-0.016188975
153	0x3dbe4987	0.09291368
154	0x3dabee9a	0.08395119
155	0xbdac53d7	-0.08414429
156	0x3d650d5b	0.05592094
157	0x3edce2c7	0.43141767
158	0x3cb91cf3	0.022596812
159	0xbebaead8	-0.36507297
160	0x3dda1b27	0.1064971
161	0xbedf68a4	-0.43634522
162	0xbe62cdbe	-0.22148797
163	0xbe856b5f	-0.2605848
164	0x3eb4cc1d	0.35311976
165	0xbe1867da	-0.14883366
166	0xbdf779d1	-0.120837815
167	0x3e18d918	0.14926565
168	0xbe8d889f	-0.27643296
169	0xbc7af308	-0.015316732
170	0x3e281427	0.16413938
171	0xbea590b9	-0.32336977
172	0xbe98c6e7	-0.2983925
173	0x3d1344ae	0.03595417
174	0x3eaf3ad0	0.34224558
175	0xbe58eaa6	-0.21183261
176	0xbcff11fc	-0.031136505
177	0xbd623515	-0.055226404
178	0x3d1f535a	0.03889785
179	0x3e6c32b8	0.23066223
180	0x3e83a2b0	0.25710058
181	0xbb38acc5	-0.002817915
182	0xbd168183	-0.036744606
183	0xbe12e4bd	-0.14345069
184	0x3e2c9ed0	0.16857457
185	0xbe4b5e18	-0.19860113
186	0xbc82338c	-0.01589372
187	0x3e130f27	0.14361249
188	0xbd371f7c	-0.04470776
189	0x3e91da08	0.28486657
190	0x3c2b1050	0.010440901
191	0xbdc157a4	-0.09440544
192	0x3d2e5f4c	0.04257135
193	0x3da8d456	0.08243625
194	0x3d52b53f	0.05144238
195	0x3cabf193	0.020989215
196	0x3e9174ce	0.28409427
197	0x3f04a131	0.5180846
198	0x3e246708	0.16054928
199	0xbc9411ff	-0.018074987
200	0x3aea381e	0.0017869507
201	0xbd18a9a8	-0.03727117
202	0x3d899d1d	0.0671942
203	0x3eb2b6aa	0.34904987
204	0xbd62fd44	-0.055417314
205	0x3e5cd3c3	0.21565156
206	0x3d7a9128	0.061173588
207	0xbbc3319c	-0.0059568416
208	0xbd434b3e	-0.04767918
209	0x3c2d81d9	0.01059004
210	0x3e32aa7e	0.1744785
211	0xbeb8045d	-0.3594083
212	0xbe1e42d5	-0.15455182
213	0xbcb25691	-0.021769794
214	0xbf252dad	-0.6452282
215	0xbe301756	-0.17196402
216	0xbd45e082	-0.04830981
217	0xbc530522	-0.012879642
218	0x3d50ea8e	0.05100494
219	0xbd7ab7de	-0.061210506
220	0x3e9cfdc4	0.30662358
221	0xbe542fba	-0.20721331
222	0xbd335bb2	-0.04378862
223	0xbe32008d	-0.17383023
224	0xbec982c5	-0.39357582
225	0xbbc293fd	-0.0059380517
226	0x3ef0aa3d	0.47004882
227	0xbd65214d	-0.05593996
228	0xbdf2d305	-0.11856655
229	0xbe85817f	-0.2607536
230	0xbd9f4ada	-0.07777949
231	0xbd348769	-0.04407445
232	0xbc00800e	-0.007843031
233	0xbd9b6910	-0.075883985
234	0xbe8d13a7	-0.27554056
235	0x3e8ebc09	0.27877834
236	0xbd96adb9	-0.07357354
237	0xbdf9f50f	-0.12204944
238	0x3d2381b1	0.039918605
239	0x3f074efc	0.52854896
240	0x3d3c0eed	0.04591267
241	0xbed52a03	-0.41633615
242	0xbe7a3b19	-0.24436606
243	0x3d064bea	0.03278724
244	0x3e55b46c	0.20869607
245	0xbd9590c2	-0.07303001
246	0x3c632e72	0.013866054
247	0xbe8093df	-0.25112817
248	0xbd32d1bd	-0.043657053
249	0xbcdde283	-0.027085548
250	0xbe8e9065	-0.2784454
251	0x3d8c6acd	0.06856308
252	0x3cf82eea	0.030295808
253	0xbe83b3eb	-0.25723204
254	0x3ea3ad99	0.31968382
255	0xbee617aa	-0.4493993

linear2.bias f4 [3]
0	0x3eb85e27	0.36009333
1	0x3d45b8e1	0.048272017
2	0xbbb03fff	-0.0053787227
